model_saved/Cora/trained.pt (torch_old, 94458 bytes, 6 tensors)

conv1.weight f4 [1433, 16]
00000000: eccb 093e 2b69 533d 385a a2bd 18e6 bc3d
00000010: 3fc9 01be ad60 5d3e ba71 51be 6d3e 5d3e
00000020: 68c6 b63d 778c 30bd fd43 853e d7c1 00bd
00000030: 09da ff3d 1a3f bdbd 8d6a f2bc ba69 3a3e
00000040: 6f97 32bc 0f80 823c 5634 b33d 56af fd3d
00000050: c6d7 7dbd e9e0 b83d 757b ce3d 2092 053e
00000060: 37d2 65be 4b56 0dbe 9a4d cbbd 97ee 81be
00000070: 990f 683e 3f46 a7bd 0dda 8f3e a5bc f13c
00000080: c5ce f03d 4368 3abd ab6f 2ebe 64f5 4f3d
00000090: 6c05 4c3e a752 643e 1c06 74bd 66da 4a3c
000000a0: 2ad7 263e 7f52 40be 0358 26bd de28 5f3e
000000b0: ac1b 4c3e a018 bcbd 7362 5d3e 2587 513e
000000c0: 49ec 5f3e 0991 82be de83 f5bd bcdb fbbd
000000d0: 3c7a 1a3d 12aa 4d3e 2982 253e 9262 a5bc
000000e0: b5d7 383e 2f5e 50bd 5052 563d 279b 8bbd
000000f0: 8ff4 7dbd 04c8 c33c d56b 6c3e 71dc 12be
00000100: af92 c6bd 4659 2abe d5d5 223d 5470 9fbe
00000110: 93ce 97be 896f cc3d 279e 903c 7973 a53e
00000120: 8994 483e e029 a9be e480 c4be 0b50 a33c
00000130: fe81 8a3d c6ce d3bd 0fa2 a7bd a93c e63e
00000140: 5914 62bc 5c7c 1e3d b6fa 753e fe5b df3c
00000150: 5c14 37bd 14ae 2cbe 8da9 843e 7a58 6cba
00000160: a166 323c a7f1 e63d 29aa 163e fb8e a63d
00000170: 0ff5 063e c905 333e fece 22ba 7b7d 27be
00000180: f976 e73e cfbf de3d 7547 39be b35b 29bb
00000190: 809f 3abe 6101 19be 0d46 1b3e f698 7c3d
000001a0: 074f 05bd a7d3 343d 6d21 123a 1b87 8ebe
000001b0: 2108 62bb 2b98 b4bd 4741 073d 151d 16be
000001c0: fa9e c4bd e31d 3dbe 8dd3 e7bd b00c a9bc
000001d0: 5760 423e 5a17 853c 8bc3 043e 2d65 9fbe
000001e0: 0cf8 babd 6a05 9bbe 4958 45be 0b60 b0be
000001f0: 0d3a 983c e6ba 423d 26b6 cb3d 0e5b 1f3d
00000200: c68c 143d 33ab f33d 71cb 313e 7b74 3bbd
00000210: f3dc b1be b120 7d3d e93d 8abe 0e46 043e
00000220: aa47 c5bd 4267 00be 801a 86bd c279 283d
00000230: 6466 963e 2f22 753a 6e52 443d 20c0 923b
00000240: 7ecd d33d b2dc 25bd 295d e83b 19e3 633e
00000250: 1625 b33d 09e1 6fbc a140 823e a360 bebd
00000260: e5de 33bd fef7 0e3c 0b47 453d 12f9 84be
00000270: ad54 013e 1e9d a43c b265 0f3e 5f56 56be
00000280: ccc2 e03c 703c c03d 9749 503e d493 ef3b
00000290: 2c4b 633e f2f4 86bd 9526 df3d cc8e ddbc
000002a0: 48f3 7b3d b3fb f9bd 8d92 5ebd ec73 4abd
000002b0: 4e84 893e 9e62 ff3d 5536 353d 0465 cd3c
000002c0: aab4 84bc f4c9 f83d bd34 f23d e7ec 3ebc
000002d0: d358 923d 1dc4 2f3e 05db 873d 52dd 4abd
000002e0: 19ca 48bd abdf a03d ed61 923d fb42 14be
000002f0: eff6 193c e687 dc3c e99b 003e b241 f13d
00000300: cef9 793e dd3e 103d a038 2abe fcf6 75bc
00000310: 2a59 9dbd 555a ba3d bbbe b1bd 6f34 333e
00000320: ac31 94be bb66 fcbd 7f47 443d 0b63 123d
00000330: 9554 dfbd 1e7e 4cbe 04da 78be 7ec5 6e3b
00000340: 9b9b 8abe badb 843e e5f0 a33e eb9d 1a3c
00000350: e339 ddbc 0fe1 53bd d67e 223e 2d7b 833a
00000360: 4f04 343e 2c42 88be 0894 0f3e 8218 3b3c
00000370: bc91 c33c bfa9 a53e 8e7c b23d ca76 8e3d
00000380: 4e62 cebd 02d4 c4bb db48 343b 38b2 9f3d
00000390: c35d 1a3d f96b 32bc cf67 61be 4638 103c
000003a0: 742e 81bd 7bfd 4e3e 19e1 2dbd 6bc2 b9bd
000003b0: 00e9 3cbe 14d8 11be c73b 94bc cf52 d53a
000003c0: cbd0 a3bd f964 07bc 4d9e c23d 01d9 7ebe
000003d0: 42bf 073e 1f34 6d3d b21d 84be 9df1 3d3e
000003e0: 16f7 f83d 0527 dcbc 85cb d6bd 0f5b e13c
000003f0: f5cb bf3d 8044 a83d 6819 de3d b105 823a
0.13456696 0.051613968 -0.07927364 0.092235744 -0.12674426 0.2161891 -0.2045354 0.21605845
0.08924562 -0.043102708 0.26028433 -0.03143486 0.12492759 -0.09240551 -0.029591823 0.18204394
-0.010900362 0.015930204 0.08750217 0.12386958 -0.061973356 0.09027273 0.10082141 0.13044024
-0.22443472 -0.1380245 -0.09926911 -0.25377342 0.226622 -0.08167695 0.28096047 0.029508898
0.11758188 -0.045509588 -0.17034785 0.050771132 0.19923943 0.22297154 -0.05957614 0.012381172
0.16293016 -0.1878147 -0.04061128 0.21792933 0.19932431 -0.09184384 0.21619587 0.2046171
0.2186748 -0.25501278 -0.11988042 -0.122977704 0.037714228 0.20084408 0.16162933 -0.020188604
0.18051036 -0.05087107 0.052324593 -0.06816702 -0.062000807 0.023899086 0.2308801 -0.14341904
-0.096959464 -0.16635618 0.039754707 -0.31140387 -0.2964979 0.09982211 0.017653538 0.3231466
0.19587912 -0.3303976 -0.38379586 0.019935628 0.06763075 -0.10342173 -0.08185207 0.44968155
-0.013798797 0.038692817 0.2402142 0.027265545 -0.04469715 -0.1686328 0.25910607 -0.00090158696
0.010888726 0.1127656 0.14713348 0.0813274 0.1317942 0.17482676 -0.0006210654 -0.16356461
0.45207956 0.10876428 -0.18093665 -0.002584201 -0.18224907 -0.14941932 0.15163441 0.061669312
-0.03254607 0.04414716 0.0005574439 -0.27837452 -0.0034489708 -0.08818086 0.033021238 -0.14659531
-0.09600635 -0.18468432 -0.11319647 -0.020635933 0.18982063 0.016246486 0.12965219 -0.31131878
-0.091293424 -0.30277568 -0.1927196 -0.34448275 0.018582368 0.04754152 0.099468514 0.038905196
0.036267065 0.11897888 0.17362763 -0.04576538 -0.34738883 0.061798755 -0.2700036 0.12917349
-0.096328095 -0.1253939 -0.06548023 0.041131742 0.29374993 0.0009351102 0.047930174 0.0044784695
0.10341929 -0.040493675 0.0070911837 0.222546 0.08747308 -0.014641055 0.25439933 -0.09295776
-0.04391374 0.008726118 0.048163455 -0.25971276 0.12629957 0.02009445 0.14003637 -0.20931385
0.027436636 0.093865275 0.20340572 0.0073113237 0.22196645 -0.06589688 0.10896031 -0.02704563
0.061511308 -0.12206211 -0.05433898 -0.049426958 0.26858753 0.124699816 0.04424127 0.025072582
-0.016199429 0.121478945 0.11826465 -0.011653162 0.07145848 0.17164655 0.066335715 -0.049527474
-0.04902086 0.07855161 0.07147584 -0.14478676 0.009397252 0.02692027 0.12559475 0.117801085
0.24411699 0.0352162 -0.16623163 -0.015012499 -0.07683022 0.09099261 -0.08678957 0.1750047
-0.28944147 -0.12324282 0.047919746 0.035738986 -0.109048046 -0.19969985 -0.24301916 0.0036433632
-0.27071843 0.25948888 0.32019725 0.009437065 -0.027005142 -0.051728304 0.15868697 0.0010031216
0.17579769 -0.26612985 0.14021313 0.011419417 0.023873203 0.32356068 0.08715163 0.06956251
-0.10077344 -0.0060067186 0.0027509246 0.077976644 0.037687074 -0.0108900005 -0.22012256 0.008802479
-0.06307688 0.20213883 -0.042450998 -0.090702854 -0.18448257 -0.14242584 -0.01809491 0.0016275289
-0.079988085 -0.00826382 0.0950285 -0.24887468 0.13256553 0.057911035 -0.25803906 0.185492
0.12156503 -0.026874075 -0.10488037 0.02750924 0.093650736 0.0821619 0.108446896 0.0009919909

conv1.bias f4 [16]
00000000: f47a 19be adea 983d 7b0e 6639 fbe1 843e
00000010: 4c65 50bc 6c29 cdbd 20d4 833e 4678 6fbd
00000020: 7374 fc3c 0c32 79bd d2b4 233e 9f93 753e
00000030: 340e b83e 4bc0 003e dc41 32bc 46b5 c33d
-0.14988309 0.07466636 0.00021939904 0.2595366 -0.012719464 -0.10017666 0.25747776 -0.05846431
0.030817246 -0.060838744 0.15986946 0.23982094 0.35948336 0.12573354 -0.01087996 0.095560595

conv2.weight f4 [16, 7]
00000000: f699 703e 520b 243e c062 f63e 67b1 a3be
00000010: e78f 633e 11b8 dabe 2a4c c13e 1099 c0be
00000020: de29 f1be 62bc d33e 01aa d93e 41a8 2b3e
00000030: c365 cabd 8d6c e3be 9174 75be b855 45be
00000040: 82f9 84be a859 123f 8e35 243e a3a8 b7be
00000050: 8bde 583e 8417 bfbe 9139 673e 81e4 c23e
00000060: 597b 06be 6a5c 01be 81df 07bf 6c76 983e
00000070: fe00 113f 6797 dd3e 2dba 1bbe 9bca 2a3e
00000080: 9d22 dc3e a37e 8cbe 417f 55be a4a8 fabe
00000090: 3a7c 963e e49c 74be 6f0a aebe 9a6d df3e
000000a0: 6e7d 0a3e 65d2 c9bd 9806 86be 95d7 e73e
000000b0: 3b16 913e dbd1 023f 3bfd 18bf 4524 04bf
000000c0: 34e3 13bd 7fcb ec3d 1aec 06bf dc45 d43d
000000d0: a33a 98be 8163 9dbe aace d03e b7a1 533d
000000e0: ed54 153f 4b9b 42be d0b2 61be 27e1 6d3e
000000f0: b3df d9be 0fa1 373e 2f1e 37be 4875 a3be
00000100: 1239 fdbe ffd4 033f 4b49 cfbe 3e92 a13e
00000110: da7a cdbe af5e 133f 0b22 0bbf 3301 15bf
00000120: 6890 dd3e e7ef 7c3e 7125 db3e 9cb5 14bf
00000130: fd3c b2bc 3614 ea3e 23fd e8be ca8c b3be
00000140: d787 893e af66 c8bc e838 773e c4d8 303e
00000150: 27aa e23b e825 243d ad73 963e bee2 7b3e
00000160: 3574 f9be 8ccb c43e 5b91 03bf 6579 ad3e
00000170: 0f54 c1bb 7f7b 4ebe c086 d03e 16b3 bfbe
00000180: b913 3dbb 3f3f 46be b91a ffbd 4f15 853e
00000190: d9f2 b5be 0654 d83e d267 dd3e 13c8 9bbe
000001a0: 30ab 1abf a925 d6be a11c 383e 1624 e2be
000001b0: 8f7b 98be f213 173e 102e ab3e c512 143e
0.23496231 0.16019943 0.48122215 -0.31971285 0.22222863 -0.42718557 0.3775342 -0.37616777
-0.47102255 0.41354662 0.42512515 0.16763403 -0.09882691 -0.44418755 -0.23970248 -0.1927098
-0.2597161 0.57168055 0.16036054 -0.35870847 0.21178643 -0.37322628 0.22580554 0.3806496
-0.13132991 -0.1263291 -0.53075415 0.2977785 0.5664214 0.43279573 -0.15207739 0.1667885
0.42995158 -0.27440366 -0.20849325 -0.48956788 0.29391652 -0.23887974 -0.33992335 0.43638307
0.1352441 -0.09854583 -0.26176906 0.45281664 0.28337273 0.51101464 -0.597614 -0.5161784
-0.03610535 0.11562251 -0.5270401 0.10364887 -0.29732236 -0.30739978 0.40782672 0.051667895
0.5833271 -0.19004552 -0.22040868 0.2323042 -0.4255348 0.17932533 -0.17882608 -0.31925416
-0.49457604 0.5149688 -0.40485606 0.31556886 -0.4013279 0.5756635 -0.5434882 -0.58204955
0.43274236 0.2470089 0.42802003 -0.58089614 -0.021757597 0.45718545 -0.45505628 -0.3506835
0.2686145 -0.024463026 0.24142802 0.1727019 0.0069172564 0.040075213 0.2938513 0.24598214
-0.4872147 0.38436544 -0.5139367 0.3388168 -0.005899913 -0.20164298 0.40727806 -0.3744132
-0.0028850867 -0.19360064 -0.12456269 0.2599282 -0.3553684 0.42251605 0.4324327 -0.30426082
-0.6041746 -0.41825607 0.17979671 -0.44168156 -0.29781768 0.14753702 0.3343358 0.14460285

conv2.bias f4 [7]
00000000: d3f3 303c bece 003e 9c32 5fbd 1b87 71be
00000010: c02b a33d 3eef 873d 038b b7bd
0.01080032 0.12578866 -0.054491624 -0.23586695 0.07967329 0.06637429 -0.08962061

inner_conv.weight f4 [16, 16]
00000000: 2852 083d 1c78 da3d 800a 5bbc 7cef debd
00000010: f0df 813d f896 473d e054 febc eac5 6f3e
00000020: 5c08 b0bd fa71 7fbe 2a33 17be c44b 863d
00000030: 4c7b 743e 5a84 51be a47f 90bd a46c dbbd
00000040: 6c20 1b3e cea7 20be 6094 e03d ba49 49be
00000050: 74cd 4abe b861 7abd e4e2 cf3d 242c 16be
00000060: d48f a6bd 00c6 8fbd 1a21 15be 2036 163c
00000070: 30ff 403e c43c 91bd f89e 7bbe a4aa 5d3e
00000080: 7ad6 27be ecab a3bd c0b9 b6bb 201d 79be
00000090: cc98 733e 1203 31be 282d dbbd d032 78bd
000000a0: 80c0 b73c 58dc 5d3e cc63 f73d 1ac6 363e
000000b0: deb4 293e 28f7 82bd e009 d3bd 7090 3c3d
000000c0: b8df 73be 787a 50bd 20d8 f5bc 3046 a2bd
000000d0: 606a 733c e4be c6bd 422d 41be 24eb 05be
000000e0: 2849 4a3e 9032 7fbe 607e 82bd 248d 643e
000000f0: 40f2 d8bc e49c a43d 788d ac3d a86b 493d
00000100: 0a54 4e3e 06fa 613e b0f6 42bd 20a5 0cbd
00000110: 5260 7a3e fcf9 7cbe 0009 70be d6d3 2c3e
00000120: 9434 2bbe 383c a23d 48cf adbd 586f 42be
00000130: 5a4d 643e e470 b33d 88f0 fabd 3016 163d
00000140: 8079 51bd 24ac e0bd a469 0f3e d0fe 6bbd
00000150: 28d8 2dbd fc82 60be 40e7 963b 44ee 1c3e
00000160: e44b dc3d e0fe b03d 7016 b03d 62d7 383e
00000170: 18d2 48bd 9a6f 6cbe 163d 0dbe 68f0 783d
00000180: 4467 353e 3621 4b3e 3882 29bd c613 20be
00000190: b248 6c3e f400 7fbe 4cd5 7e3e 44ad 5dbe
000001a0: e03d 41bd 8832 e73d 8827 1f3d dc3b 593e
000001b0: c0af 3b3c 9ae7 6dbe 1a85 133e 107e 3fbd
000001c0: f843 623e 4652 223e a0c5 a63c 2e4d 003e
000001d0: 64a9 f7bd c892 6cbe 9889 3abe 506a a5bd
000001e0: d66e 35be 72e1 62be 1c6a 063e 4052 9dbd
000001f0: 88ec 183e 685c 03bd 04b5 dfbd fa3b 71be
00000200: 6c23 69be 226f 2b3e a49c b73d 00b1 82bc
00000210: 18ff 74bd e426 62be 8a82 6b3e 6c1d 7d3e
00000220: 9808 17be 7880 103d 243f 53be 32c9 39be
00000230: 004e b9bb 2c7f 1fbe 0ced 72be be8e 03be
00000240: cc5d 68be 3044 9b3d 3a6c 2cbe 34b5 4e3e
00000250: 9058 113e 8829 703e 1cd6 5ebe aa24 0e3e
00000260: 3c46 4b3e 2050 c73c 304e a4bc 5052 f93d
00000270: 88dd 883d ec59 c1bd 4a70 7abe c28c 23be
00000280: a406 fc3d c817 3c3e d06b 8f3c a04c e7bd
00000290: 7cfe eb3d f0a4 4abd 5461 ae3d 52f6 2dbe
000002a0: 4c33 0c3e 04cb eabd a883 3c3d e87c 463d
000002b0: 7c17 7c3e e236 6a3e 4268 53be 7866 fe3d
000002c0: 543b 4dbe 645f fabd 8012 ca3d 842a 2fbe
000002d0: 3094 5b3e 8ce6 c13d 7029 af3c bc70 0f3e
000002e0: 8e24 5abe 30fd 283d b4d8 be3d d090 ebbd
000002f0: dc35 9fbd 58bf cf3d a2eb 583e 84bb c7bd
00000300: c09e 1a3e 468d 0f3e cadc 15be e28c 4bbe
00000310: 105f f1bc 22e8 1e3e f27e 55be 2ef0 31be
00000320: 9e9b 3a3e 14da 12be 12d6 36be c096 2ebc
00000330: 8a95 7a3e 00e8 283e 7a1d 043e e00b 033d
00000340: 084c 00be 6a84 47be f00b 083e 94cc 973d
00000350: 6c47 853d 5047 bdbd 8ed8 79be 801a 0c3d
00000360: 0064 30bd 10fe 9abc 7078 c23c 16af 15be
00000370: b281 1fbe 248d 94bd f8c2 c63d 2c52 20be
00000380: daad 6e3e 5202 7cbe 6eef 1ebe b8c9 923d
00000390: 3417 79be 3429 0ebe 9224 043e ba8c 2dbe
000003a0: 6007 a43d 0a72 08be 3cfe f1bd d0ab 313d
000003b0: 8053 c63c 9232 683e 900a 553d 6847 323d
000003c0: a8f6 04be 9c80 5e3e 8018 57bb 022f 193e
000003d0: 48eb 4cbe 86ef 053e e8fb 4f3e 62e4 253e
000003e0: 38e2 553e 88bc e8bd 60ab 37be 2454 b83d
000003f0: 68da dd3d 188d 1bbe 606c a4bd 0039 52bb
0.033281475 0.1066744 -0.013369203 -0.10885522 0.06341541 0.04872796 -0.03104633 0.23415342
-0.085953444 -0.24945822 -0.14765611 0.0655742 0.23875159 -0.20460644 -0.070555955 -0.10714081
0.15149087 -0.15689012 0.109658 -0.1965703 -0.19804937 -0.061128348 0.10150698 -0.14665276
-0.08132902 -0.070201874 -0.14563408 0.009168178 0.18847346 -0.07091668 -0.2457236 0.21647125
-0.1639041 -0.07991776 -0.0055763423 -0.24327517 0.23788756 -0.17286327 -0.10701972 -0.060595334
0.022430658 0.21666086 0.120795816 0.17849007 0.16572902 -0.063947976 -0.10304618 0.046036184
-0.2381581 -0.050898045 -0.030010283 -0.079235435 0.014856905 -0.09704378 -0.1886492 -0.1307798
0.1975447 -0.24921632 -0.0637176 0.22319466 -0.026482701 0.08037737 0.084254205 0.049174935
0.20149246 0.22068033 -0.04759854 -0.034337163 0.24450806 -0.24704736 -0.23440933 0.16877684
-0.16719276 0.07921642 -0.084868014 -0.18987787 0.22295132 0.087617666 -0.12252909 0.036642253
-0.051141262 -0.10970333 0.14005142 -0.057616055 -0.04244247 -0.21924967 0.004605204 0.15325266
0.107566625 0.086423635 0.085980296 0.18050912 -0.049028486 -0.23089448 -0.13792834 0.060776144
0.17715174 0.19836888 -0.041383952 -0.15632543 0.23074606 -0.24902707 0.24886054 -0.21648127
-0.04717815 0.11288935 0.03885606 0.21214241 0.011455476 -0.2323288 0.14406243 -0.046751082
0.2209624 0.15851697 0.020357907 0.12529442 -0.120928556 -0.23102868 -0.1821655 -0.08076918
-0.17718062 -0.22156313 0.13126415 -0.076817036 0.1493398 -0.032070547 -0.10923198 -0.23558035
-0.22767419 0.16741613 0.08965424 -0.01595354 -0.05981359 -0.22085148 0.22999015 0.24718255
-0.14749372 0.035278767 -0.20629555 -0.18143156 -0.0056550503 -0.15575856 -0.23723239 -0.1284742
-0.2269203 0.07581365 -0.1683816 0.20186311 0.1419394 0.23453343 -0.21761364 0.13881174
0.19851011 0.024330199 -0.020056814 0.12173903 0.06682879 -0.09440979 -0.24456897 -0.15971664
0.12305954 0.18368447 0.017507464 -0.11293912 0.115231484 -0.049473703 0.085146576 -0.16988495
0.13691443 -0.114645034 0.046023995 0.048458964 0.24618334 0.22872499 -0.2064524 0.12421888
-0.20042163 -0.122252256 0.0986681 -0.17106062 0.21443248 0.094678015 0.021382064 0.14007849
-0.21303007 0.041257083 0.093186766 -0.1150223 -0.07773945 0.10143918 0.21183637 -0.09752563
0.15099621 0.14018735 -0.14635006 -0.19877961 -0.029464275 0.15518239 -0.20849207 -0.17376778
0.18223426 -0.14341003 -0.17855099 -0.010656059 0.24471107 0.16494751 0.1290187 0.031993747
-0.12529004 -0.19484106 0.13285804 0.07412067 0.06507763 -0.092421174 -0.24399015 0.03420496
-0.043064117 -0.018919975 0.02373907 -0.14617571 -0.15576819 -0.07253483 0.09705156 -0.15656346
0.23308507 -0.2461026 -0.15521023 0.07167381 -0.24325258 -0.13882905 0.12904575 -0.16948214
0.08009219 -0.13324752 -0.118160695 0.043376744 0.024209738 0.22675541 0.052012026 0.04352513
-0.12984717 0.21728748 -0.0032821 0.14959338 -0.20011628 0.13079652 0.20310938 0.16200402
0.20887077 -0.113640845 -0.17936468 0.090004236 0.10832673 -0.15190542 -0.080284834 -0.0032077432

inner_conv.bias f4 [16]
00000000: 50cc abbc ace3 f43d 3cd5 353e 50fe 933d
00000010: 14b3 cabd 0caa 1fbe 721a 5d3e 807a e53c
00000020: a6f0 05be a801 3fbe 0aed 2dbe 3216 6f3e
00000030: 363b 21be 9c3b 79be bacc 3fbe 341f f3bd
-0.020971447 0.119574875 0.17757124 0.07226241 -0.09897438 -0.15592211 0.2159212 0.028012514
-0.13080081 -0.18652976 -0.16984954 0.2334831 -0.15745243 -0.24339145 -0.1873044 -0.11871186
