model_saved/PPI/trained.pt (torch_old, 13698 bytes, 6 tensors)

conv1.weight f4 [50, 16]
-0.010850109 0.023614643 0.041566946 0.02384006 -0.05436727 0.05840438 0.0063194004 -0.023434754
-0.006717956 -0.050978653 0.046623837 0.046984028 0.04032705 -0.026490975 0.017036632 -0.0043241302
-0.05564383 -0.06438865 0.0053145518 0.046810355 0.017320918 0.037769016 -0.0101894755 -0.05337152
-0.00743043 -0.0015683204 0.04676729 0.064298645 0.013985152 -0.04329776 -0.012221687 -0.017842505
-0.02530414 -0.07003091 -0.037333984 0.066247955 0.05304462 0.055652905 0.050321303 -0.023918739
0.0649199 0.048354436 -0.030363014 0.064310625 0.05478723 -0.057744917 -0.038675457 0.06309655
0.027321119 0.09998016 0.060359564 -0.03206154 -0.049501326 -0.028879123 -0.027857449 0.032189324
-0.05333239 -0.026348425 0.049504142 -0.014534804 -0.01847089 0.048050545 0.028365962 -0.043478273
-0.08246753 -0.106171794 -0.0046284357 0.07341509 -0.0039162096 0.081751384 0.03078445 -0.09172879
0.029366994 0.014991643 0.015316423 0.08549105 0.092493646 -0.077214375 -0.024992129 0.0384333
-0.008795875 -0.010131526 -0.066165924 0.049105227 0.06318863 0.035083182 0.04879119 -0.034629017
0.058349628 0.051245324 -0.052911613 0.03827674 0.032032 -0.0223696 -0.031646185 0.055796802
0.035864696 0.016037097 -0.019310325 -0.010007288 0.012060389 -0.03420943 0.0021007007 0.027898677
-0.011319161 0.01654312 -0.037641324 -0.008064355 -0.01567016 0.03549307 -0.011460339 -0.005077131
-0.018141102 -0.03814167 -0.06388336 0.025346333 0.081320375 0.015514941 0.054216534 -0.03450428
0.06049412 0.061753746 -0.049438592 0.03116494 0.024610592 -0.030694695 -0.0452049 0.05736609
0.023159912 0.034784157 0.0966585 -0.021464033 -0.08557016 -0.014673526 -0.06579314 0.028569933
-0.067595005 -0.07885268 0.07881912 0.016347198 -0.025143152 0.044281904 0.062298726 -0.08255349
0.047395367 0.07916788 0.13621578 -0.007492868 -0.08059201 -0.013214701 -0.05237285 0.0388549
-0.052948367 -0.065862074 0.14773212 -0.0015549844 -0.01961796 0.05736812 0.055839192 -0.0667504
1.3947113e-12 7.4072245e-14 1.1769528e-13 -1.7604517e-13 3.6527845e-14 -1.3472879e-14 -3.8121622e-13 -1.2983012e-12
-2.6024175e-13 -6.649701e-13 -6.430218e-13 -5.6907577e-14 3.1062886e-13 1.5075814e-13 7.0509034e-13 -4.2899232e-13
-0.005425675 0.001421932 0.045147818 0.022015458 -0.028820295 -0.007197694 -0.0048894444 -0.0062721926
-0.01328497 -0.02825766 0.01294377 -0.018799607 0.0040794085 0.02092084 0.021890821 -0.0064460146
0.041673366 0.048179578 0.053835087 -0.013748729 -0.021237643 -0.012141274 -0.029945517 0.045695346
-0.03395293 -0.020457089 0.03445951 -0.03558772 -0.0041573336 0.07478368 0.05530393 -0.036540255
-0.050507158 -0.06361936 -0.08092914 0.050146822 0.07011105 0.018411877 0.0734393 -0.04652689
0.07352229 0.041657735 -0.09553956 0.03477356 0.03685922 -0.07194162 -0.06713162 0.06573189
0.06442226 0.074425526 0.024362957 -0.048940614 -0.022413475 -0.06633314 -0.046757773 0.08880528
-0.04286408 -0.008568418 0.0070322766 -0.0719701 -0.038791746 0.09366061 0.023215255 -0.046808466
0.059285354 0.037825197 -0.02682368 -0.029067416 0.01966992 -0.06512517 0.010377021 0.05840006
-0.0039796014 0.006596979 -0.050758902 -0.053684797 -0.056701247 0.078407004 0.0017789246 -0.006356504
00000000: a8c4 31bc 7f73 c13c 1a42 2a3d 3b4c c33c
00000010: 37b0 5ebd 6e39 6f3d f912 cf3b 3efa bfbc
00000020: 4d22 dcbb fece 50bd a3f8 3e3d 5372 403d
00000030: fa2d 253d 9a03 d9bc 6890 8b3c 6fb1 8dbb
00000040: c9ea 63bd 32de 83bd b125 ae3b 37bc 3f3d
00000050: 99e4 8d3c afb3 1a3d c2f1 26bc 189c 5abd
00000060: f77a f3bb 1a90 cdba 0f8f 3f3d 02af 833d
00000070: fb21 653c fe58 31bd 783d 48bc 722a 92bc
00000080: a14a cfbc 5e6c 8fbd 85eb 18bd 02ad 873d
00000090: 5145 593d 4df4 633d b61d 4e3d 3bf1 c3bc
000000a0: b9f4 843d 4d0f 463d dbbb f8bc 4ab5 833d
000000b0: 9368 603d ef85 6cbd 286a 1ebd c438 813d
000000c0: 8ad0 df3c 66c2 cc3d 973b 773d f652 03bd
000000d0: e7c1 4abd e993 ecbc 4e35 e4bc f4d8 033d
000000e0: 1073 5abd a7d8 d7bc dbc4 4a3d 6323 6ebc
000000f0: 4450 97bc a6d0 443d bc5f e83c 4616 32bd
00000100: bde4 a8bd 9970 d9bd 22aa 97bb a75a 963d
00000110: 8c53 80bb 456d a73d ac2f fc3c 4edc bbbd
00000120: 0d93 f03c 829f 753c bcf1 7a3c ee15 af3d
00000130: 4f6d bd3d 9222 9ebd 4bbc ccbc 3c6c 1d3d
00000140: 931c 10bc b3fe 25bc 0082 87bd 9022 493d
00000150: 0a69 813d 62b3 0f3d 45d9 473d 28d7 0dbd
00000160: 0500 6f3d 9ee6 513d d9b9 58bd 12c8 1c3d
00000170: fd33 033d 7440 b7bc 6e9f 01bd 308b 643d
00000180: dce6 123d 3b60 833c b030 9ebc 9cf5 23bc
00000190: f098 453c 301f 0cbd e9ab 093b c48b e43c
000001a0: 0174 39bc 7085 873c ca2d 1abd 5b20 04bc
000001b0: b55e 80bc 2e61 113d 25c4 3bbc 105e a6bb
000001c0: a69c 94bc 713a 1cbd 47d5 82bd 1da3 cf3c
000001d0: 4c8b a63d 6132 7e3c 2812 5e3d 5c54 0dbd
000001e0: afc8 773d 7ff1 7c3d 1f80 4abd 9e4d ff3c
000001f0: 279c c93c 7173 fbbc c628 39bd b5f8 6a3d
00000200: dbb9 bd3c d579 0e3d e4f4 c53d 57d5 afbc
00000210: 683f afbd 3b69 70bc 8ebe 86bd 7e0b ea3c
00000220: 406f 8abd 847d a1bd eb6b a13d 8fea 853c
00000230: 03f9 cdbc f160 353d f32c 7f3d ce11 a9bd
00000240: a521 423d c522 a23d 267c 0b3e bc86 f5bb
00000250: 6c0d a5bd 7982 58bc ea84 56bd 5126 1f3d
00000260: 63e0 58bd b2e2 86bd 1747 173e 9ed0 cbba
00000270: d8b5 a0bc d5fa 6a3d a3b7 643d 6fb4 88bd
00000280: c549 c42b becb a629 5b83 042a 9135 46aa
00000290: bd81 2429 b0b4 72a8 0c9b d6aa 3bb8 b6ab
000002a0: ca80 92aa 252c 3bab 9bfe 34ab fc24 80a9
000002b0: 56de ae2a 13bd 292a 1d77 462b 4f80 f1aa
000002c0: dcc9 b1bb 1f60 ba3a ebec 383d c359 b43c
000002d0: 8a18 ecbc a2da ebbb a237 a0bb f786 cdbb
000002e0: 34a9 59bc 9c7c e7bc 1b12 543c a201 9abc
000002f0: 8fac 853b 2e62 ab3c 6154 b33c 1739 d3bb
00000300: b1b1 2a3d f357 453d 2e82 5c3d 5942 61bc
00000310: 91fa adbc 32ec 46bc 4d50 f5bc 0b2b 3b3d
00000320: 3a12 0bbd a095 a7bc 6a25 0d3d 6ec4 11bd
00000330: 3e3a 88bb 3028 993d 6086 623d 3cab 15bd
00000340: 98e0 4ebd de4a 82bd 2dbe a5bd c166 4d3d
00000350: 6296 8f3d 81d4 963c 5867 963d fb92 3ebd
00000360: db92 963d 4da1 2a3d 3faa c3bd b86e 0e3d
00000370: b2f9 163d 2156 93bd 4e7c 89bd 719e 863d
00000380: d1ef 833d 696c 983d d394 c73c f475 48bd
00000390: 779c b7bc abd9 87bd 1485 3fbd 8bdf b53d
000003a0: 3f92 2fbd 8d62 0cbc 036f e63b 0f65 93bd
000003b0: 18e4 1ebd 22d1 bf3d eb2d be3c 3cba 3fbd
000003c0: 33d5 723d 98ee 1a3d 56bd dbbc ca1e eebc
000003d0: d022 a13c 5860 85bd 6104 2a3c e734 6f3d
000003e0: 5167 82bb 792b d83b 91e8 4fbd 97e4 5bbd
000003f0: 913f 68bd da93 a03d ce2a e93a 384a d0bb

conv1.bias f4 [16]
0.31937426 0.34916738 0.30420014 0.35202712 0.28473985 0.36127073 0.27228 0.3447044
0.3229079 0.21644661 0.2657721 0.35204008 0.30940595 0.37630743 0.19499591 0.3283395
00000000: 0685 a33e 11c6 b23e 1fc0 9b3e e63c b43e
00000010: 6cc9 913e 7af8 b83e 4968 8b3e 187d b03e
00000020: 2f54 a53e 2ea4 5d3e 4813 883e 993e b43e
00000030: 756a 9e3e 5eab c03e 02ad 473e 1d1c a83e

conv2.weight f4 [16, 121]
0.051335603 -0.08501504 -0.11066109 -0.03482613 -0.1618494 -0.039490078 -0.036013346 0.0032805838
-0.086935066 -0.016454943 0.007349771 0.083474085 -0.014507405 0.049914543 0.057484332 0.07205831
-0.14492899 -0.10953983 -0.06347679 -0.05251743 -0.046678875 0.059984762 0.0766761 -0.043938074
-0.079806566 -0.032853954 -0.035632394 0.007956722 -0.04490671 0.06428147 0.035584025 -0.10632091
-0.04572892 0.017321678 0.081533 -0.026501605 0.029870886 0.055271927 0.08661018 0.00982089
-0.16899766 0.03234496 0.057061125 0.00023090246 -0.028488109 0.0878924 -0.053431313 -0.05720969
-0.084422626 0.07863592 0.0760185 0.06754722 0.08200047 0.09164524 0.079844534 0.083491094
0.04278483 0.07443434 -0.08556539 0.07732763 0.07801701 -0.09469627 0.039419085 0.009531482
0.00057913334 -0.119051255 -0.020592308 -0.03719563 -0.067945704 -0.0265899 -0.0844 -0.07993136
0.042804718 0.07015333 0.06233682 -0.06954829 -0.043986224 -0.16835308 0.08403822 0.07600036
0.009385094 0.005258276 0.07228659 0.09841705 -0.02480639 -0.02343031 -0.1532712 0.098381326
0.074277386 0.054295834 0.052975863 0.0067724693 -0.01998847 0.06309485 0.033234946 -0.04944307
-0.055104394 -0.047597095 0.0863097 -0.0753717 -0.027317734 0.078499354 -0.07682373 0.09913121
0.07036536 0.00973455 0.04083261 -0.09371656 -0.068790406 -0.085242234 -0.039227247 0.06938421
0.08520537 0.09767263 0.05278693 0.086354665 -0.05155556 -0.059337314 -0.041820604 -0.030983271
0.06486482 0.03714396 -0.11973361 -0.12641181 -0.009800834 -0.16406476 -0.0110627655 -0.013116239
-0.016977949 -0.08894068 -0.017000608 0.012244197 0.074207515 -0.024996247 0.04851101 0.08798018
0.051977705 -0.15634377 -0.13502319 -0.09049735 -0.0625754 -0.022774354 0.05166944 0.11506138
-0.05410483 -0.08754248 -0.045537118 -0.050713938 0.035852354 -0.056042757 0.0950049 0.02120221
-0.13113858 -0.06240563 0.012688752 0.0736612 -0.012590059 0.016587876 0.061033588 0.097318724
0.014536996 -0.17654973 0.04427968 0.04702098 -0.0211275 -0.059396695 0.11382386 -0.05282666
-0.059660733 -0.1196439 0.06914806 0.056844387 0.054217186 0.08695563 0.10034919 0.06977191
0.116265066 0.036323376 0.06547439 -0.07967052 0.11580383 0.08037911 -0.11860977 0.017836917
0.014205831 0.000726846 -0.142822 -0.04222333 -0.07722547 -0.04906375 -0.014558824 -0.119611144
-0.08755862 0.07728625 0.100679226 0.09112515 -0.09523367 -0.054196574 -0.17039779 0.11566431
0.114526905 0.01344724 0.011335521 0.103973866 0.09452741 -0.03731707 -0.042369276 -0.16862188
0.116306 0.104333825 0.06328358 0.04436064 0.007726947 -0.011953823 0.093626276 0.043200918
-0.066289686 -0.06268967 -0.055307947 0.0926908 -0.11275041 -0.027770123 0.06855181 -0.105723314
0.11202332 0.096032776 0.0010287083 0.03616653 -0.09942271 -0.049001757 -0.1370813 -0.0016150186
0.09613969 0.11408322 0.111245945 0.062084246 0.0959632 -0.065583274 -0.06772292 -0.05601907
-0.03716394 0.102401905 -0.039533295 -0.1512816 -0.042086266 0.06219818 -0.057419512 0.08016533
0.061263114 -0.015151382 -0.019230226 0.0679251 0.043990523 -0.041844074 -0.036463276 -0.03637727
00000000: 4845 523d 5e1c aebd 48a2 e2bd d8a5 0ebd
00000010: d9bb 25be 59c0 21bd bb82 13bd 10ff 563b
00000020: 030b b2bd 84cc 86bc 59d6 f03b 76f4 aa3d
00000030: 78b0 6dbc 3173 4c3d b174 6b3d 4f93 933d
00000040: 4468 14be 6b56 e0bd 1f00 82bd 841c 57bd
00000050: 5932 3fbd 95b2 753d 5c08 9d3d 69f8 33bd
00000060: a071 a3bd de91 06bd 46f3 11bd e95c 023c
00000070: 19f0 37bd 01a6 833d 8ec0 113d c7be d9bd
00000080: 3f4e 3bbd 31e6 8d3c c6fa a63d e519 d9bc
00000090: cab3 f43c d164 623d ae60 b13d cce7 203c
000000a0: b90d 2dbe 267c 043d edb8 693d 681e 7239
000000b0: e55f e9bc ee00 b43d cbda 5abd b554 6abd
000000c0: c5e5 acbd df0b a13d 96af 9b3d 3256 8a3d
000000d0: ddef a73d 80b0 bb3d 8885 a33d 61fd aa3d
000000e0: 253f 2f3d 0871 983d e83c afbd f35d 9e3d
000000f0: 62c7 9f3d 1ef0 c1bd e875 213d ef29 1c3c
00000100: fbd0 173a 25d1 f3bd 33b1 a8bc 725a 18bd
00000110: 1e27 8bbd 10d3 d9bc e8d9 acbd 0eb3 a3bd
00000120: 0054 2f3d 8dac 8f3d e554 7f3d 556f 8ebd
00000130: e62a 34bd c064 2cbe 3b1c ac3d 14a6 9b3d
00000140: f0c3 193c 9e4d ac3b fe0a 943d e18e c93d
00000150: c536 cbbc ecf0 bfbc 20f3 1cbe 267c c93d
00000160: be1e 983d 4f65 5e3d 38fd 583d 97eb dd3b
00000170: dcbe a3bc df37 813d 5e21 083d d184 4abd
00000180: 25b5 61bd 2cf5 42bd 24c3 b03d 7a5c 9abd
00000190: 71c9 dfbc 45c4 a03d c255 9dbd 4e05 cb3d
000001a0: b71b 903d a97d 1f3c 1840 273d 78ee bfbd
000001b0: fce1 8cbd 7b93 aebd c0ac 20bd 4f19 8e3d
000001c0: 2780 ae3d 9608 c83d 1c37 583d b7da b03d
000001d0: ec2b 53bd af0b 73bd 154c 2bbd a1d0 fdbc
000001e0: d9d7 843d 4424 183d e536 f5bd 1972 01be
000001f0: ad93 20bc 9800 28be 9a40 35bc 7ee5 56bc
00000200: 5715 8bbc 8826 b6bd dc44 8bbc e29b 483c
00000210: 1cfa 973d eec4 ccbc 7bb3 463d f42e b43d
00000220: 93e6 543d 9518 20be 8543 0abe ad56 b9bd
00000230: 8827 80bd 4891 babc 56a3 533d 4da5 eb3d
00000240: 079d 5dbd 7949 b3bd 2185 3abd 6bb9 4fbd
00000250: ebd9 123d 178d 65bd ee91 c23d 42b0 ad3c
00000260: 3149 06be 0c9d 7fbd 7ce4 4f3c afdb 963d
00000270: 8946 4ebc 4ce3 873c 5bfe 793d 0a4f c73d
00000280: 952c 6e3c 74c9 34be 9c5e 353d 1299 403d
00000290: 9413 adbc f349 73bd 7c1c e93d c560 58bd
000002a0: d05e 74bd dc07 f5bd 809d 8d3d a9d5 683d
000002b0: d712 5e3d cb15 b23d e083 cd3d 93e4 8e3d
000002c0: 611c ee3d d2c7 143d 7017 863d 4c2a a3bd
000002d0: 8f2a ed3d ce9d a43d aee9 f2bd ba1e 923c
000002e0: 93bf 683c cf89 3e3a ee3f 12be 5ff2 2cbd
000002f0: 6328 9ebd 12f7 48bd 2288 6ebc b0f6 f4bd
00000300: ef51 b3bd 4148 9e3d e930 ce3d d39f ba3d
00000310: df09 c3bd 3afd 5dbd c27c 2ebe 69e1 ec3d
00000320: 158d ea3d d051 5c3c 9fb8 393c 40f0 d43d
00000330: 9697 c13d c9d9 18bd 688b 2dbd 37ab 2cbe
00000340: d731 ee3d f9ac d53d d29a 813d 81b3 353d
00000350: 5432 fd3b f8d9 43bc 22bf bf3d 72f3 303d
00000360: e3c2 87bd 7163 80bd 968a 62bd add4 bd3d
00000370: b0e9 e6bd 2b7e e3bc e464 8c3d 7785 d8bd
00000380: 7b6c e53d d5ac c43d b9d5 863a 5b23 143d
00000390: 229e cbbd 11b6 48bd 0a5f 0cbe 08af d3ba
000003a0: e3e4 c43d 77a4 e93d ead4 e33d 0d4c 7e3d
000003b0: 5b88 c43d 8650 86bd 50b2 8abd 4174 65bd
000003c0: 3739 18bd 17b8 d13d aaed 21bd 90e9 1abe
000003d0: a662 2cbd 85c3 7e3d b930 6bbd b82d a43d
000003e0: 08ef 7a3d 813d 78bc b588 9dbc 511c 8b3d
000003f0: 682f 343d b164 2bbd 845a 15bd 5500 15bd

conv2.bias f4 [121]
0.6980046 -0.03859445 -0.15465675 -0.1260772 -0.36433524 -0.2703526 -0.11611374 0.153425
-0.34981954 0.07187981 -0.22547123 -0.107223846 0.7870368 -0.19540559 -0.2929804 0.17426485
-0.48201397 -0.30092406 0.030591028 0.27343595 -0.22910662 0.65284866 -0.17132229 0.08419493
-0.2908 0.66883415 0.7312307 0.03885823 0.76567906 -0.31310853 0.7498393 -0.27672946
1.0611655 -0.3165651 -0.2268304 -0.039096855 -0.2577329 -0.21451396 0.22369389 -0.23071657
-0.2985609 -0.15515572 -0.21330155 -0.20206243 -0.3582242 -0.074069604 0.19182333 0.21334812
-0.03744887 -0.17913902 0.1405275 0.01740062 0.26405025 0.21992713 -0.06672474 -0.11814681
-0.2699378 -0.3287739 -0.29941136 -0.17140898 0.3025576 -0.27158755 -0.21478441 -0.23110533
-0.235682 -0.34106165 0.48042136 0.14659509 0.36016822 -0.12242204 -0.037476655 -0.29121366
-0.33085182 -0.04599573 -0.28460908 -0.1888607 0.08235323 -0.34308517 -0.100024596 -0.16630091
-0.21569471 0.43645862 -0.06543667 -0.2552022 -0.32467106 0.62077016 -0.512667 -0.07985756
-0.07359233 -0.24433978 -0.27026856 -0.11032499 0.0100133335 -0.31846148 -0.17840926 0.08213441
-0.2613193 0.23490095 0.26531857 0.022457402 0.43432635 -0.057999622 -0.22980902 -0.043562744
-0.2912625 0.009562382 -0.0043753753 -0.2321773 0.34780177 0.26386315 0.0283115 -0.2984035
-0.08220451 -0.05497183 -0.22994469 0.23561332 1.0604789 0.8675729 0.95067084 0.5237685
-0.122491784
00000000: 6eb0 323f 3715 1ebd 575e 1ebe 621a 01be
00000010: 268a babe a86b 8abe 0acd edbd 711b 1d3e
00000020: 8c1b b3be b935 933d eee1 66be 2d98 dbbd
00000030: 3e7b 493f 6718 48be 8701 96be 7c72 323e
00000040: 89ca f6be b812 9abe 099a fa3c ccff 8b3e
00000050: ed9a 6abe 1721 273f 1c6f 2fbe 646e ac3d
00000060: bde3 94be b738 2b3f ef31 3b3f cf29 1f3d
00000070: 8b03 443f c34f a0be 78f5 3f3f 7caf 8dbe
00000080: 45d4 873f d214 a2be 3a46 68be 0624 20bd
00000090: 91f5 83be 8ca9 5bbe 0310 653e f740 6cbe
000000a0: f9dc 98be 24e1 1ebe b96b 5abe 74e9 4ebe
000000b0: 2a69 b7be ceb1 97bd 566d 443e ee77 5a3e
000000c0: fc63 19bd 3870 37be 71e6 0f3e bf8b 8e3c
000000d0: 9831 873e 9434 613e fba6 88bd f4f6 f1bd
000000e0: 4a35 8abe 0d55 a8be 724c 99be d685 2fbe
000000f0: d4e8 9a3e 860d 8bbe 72f0 5bbe e0a6 6cbe
00000100: 9f56 71be a29f aebe caf9 f53e 061d 163e
00000110: f867 b83e 68b8 fabd 1f81 19bd f519 95be
00000120: 6965 a9be 0566 3cbd 48b8 91be b364 41be
00000130: cfa8 a83d dca8 afbe b2d9 ccbd c94a 2abe
00000140: 13df 5cbe 8177 df3e a903 86bd dda9 82be
00000150: 493b a6be cbea 1e3f 253e 03bf 5c8c a3bd
00000160: 93b7 96bd 3534 7abe a460 8abe 11f2 e1bd
00000170: f70e 243c 620d a3be ebb0 36be 1636 a83d
00000180: a5cb 85be e089 703e d6d7 873e 96f8 b73c
00000190: 0660 de3e 0391 6dbd 0e53 6bbe d96e 32bd
000001a0: 5c20 95be 89ab 1c3c 4f5f 8fbb e3bf 6dbe
000001b0: 1313 b23e 1219 873e 85ed e73c 58c8 98be
000001c0: d75a a8bd 242a 61bd 9f76 6bbe 9e44 713e
000001d0: c6bd 873f 4219 5e3f 2a5f 733f b115 063f
000001e0: f9dc fabd

inner_conv.weight f4 [16, 16]
0.43203923 0.37271705 0.2694128 -0.043950766 0.15341106 -0.23426658 -0.14713734 0.20436409
0.19276342 0.17146662 -0.41298056 0.35882857 -0.18086371 0.37473616 0.35678127 0.1604965
0.43140623 0.24864468 0.25395575 -0.14703906 0.40161297 0.11349037 0.25583938 -0.09790757
0.3135968 0.38412645 -0.33179656 0.35498562 -0.28617358 -0.2981177 -0.36186248 0.12512323
-0.32511777 -0.16300064 -0.21766932 0.1157293 -0.42511502 -0.19851093 0.0031677186 0.038885474
-0.1955591 0.15513274 -0.28568187 -0.366714 -0.06155923 -0.2341076 0.27294227 -0.2959723
-0.036352426 0.17985341 -0.3792061 0.33520374 -0.19675021 -0.1178298 -0.26487982 -0.16135687
-0.16696519 -0.38532797 0.14796373 -0.0013871491 0.42358634 0.29214337 0.3766925 0.12740389
0.22753051 0.40546653 0.35552058 -0.33272648 -0.09709394 -0.41762555 0.016381234 -0.15293562
0.37581888 0.06846157 0.0047656894 -0.3132208 -0.33979845 0.068166524 -0.21515624 -0.19886215
0.30373004 -0.2257376 -0.19273604 0.33247045 0.16917756 -0.24604106 0.13113716 0.21829787
-0.38460216 0.08088991 0.09893039 -0.016864598 0.41517302 -0.28621095 0.23474333 -0.23002349
-0.3707049 0.2951062 -0.20772582 0.020352095 0.22772244 -0.36141798 -0.3706541 0.14742395
0.37755492 -0.04581961 0.30493698 0.15216091 0.123539716 -0.27607673 0.4121062 0.1983374
0.06695393 0.30627164 -0.37205634 0.09330729 -0.20383148 -0.04397139 0.14186928 0.19177994
0.09933594 -0.33513147 -0.27099344 0.0075606406 -0.07499403 -0.3624378 0.42658952 0.05446571
-0.30767727 0.1899133 0.18814364 -0.21242116 0.2171317 -0.2686166 0.15003076 0.41132095
0.28584507 0.21377358 -0.08809698 0.08129153 0.15110663 0.105761975 -0.087724954 0.060417056
-0.1753836 -0.24476783 -0.39959985 -0.35303906 -0.27180868 0.41391256 0.08665237 -0.3917122
-0.22134265 0.10114285 -0.12960342 -0.1225687 -0.1626027 -0.105758935 0.049808234 0.025642216
0.2782028 0.27710357 0.35636577 -0.013774604 -0.1933487 0.0014775991 -0.2867472 0.17715487
-0.052243173 -0.1386838 -0.3671133 0.20867595 0.24169704 0.39500585 -0.15340346 0.13047126
0.016322225 -0.27581617 -0.27069736 0.22173926 -0.24868932 0.3153127 0.15127704 0.14787754
0.28517154 0.21192333 0.1867508 0.22466508 -0.18375623 -0.2296186 -0.07932854 0.24039492
0.3030341 0.3188757 -0.1365881 -0.054942697 -0.2974018 0.26699397 -0.2871424 -0.17817977
0.35756692 0.10522768 -0.18127277 -0.29157853 -0.29777157 0.34945235 -0.39577547 0.37417898
0.3463951 0.026830435 -0.034708083 0.33676347 0.19094852 0.40941837 0.349793 -0.28395224
0.26722053 0.2183812 -0.30744433 0.2079638 -0.224912 -0.25798553 0.008078277 -0.053209215
-0.11642912 -0.28397298 0.23687437 0.43174395 -0.09594774 -0.2917527 -0.02232796 -0.37620583
-0.35163048 -0.14424616 0.272064 -0.33173713 -0.0691016 -0.22485058 -0.39871344 -0.09747583
-0.025223434 -0.07280713 0.31659088 0.17344853 0.26959148 0.16960642 0.04543063 0.23502162
-0.2762403 0.22063449 0.20624986 -0.18377352 -0.014861256 -0.32756394 -0.3789069 -0.00047835708
00000000: 3f34 dd3e c5d4 be3e 79f0 893e b805 34bd
00000010: ca17 1d3e 94e3 6fbe 2cab 16be d244 513e
00000020: c663 453e f294 2f3e 3072 d3be 61b8 b73e
00000030: 5634 39be 6bdd bf3e 09ac b63e 3259 243e
00000040: 47e1 dc3e b69c 7e3e 7d06 823e 6891 16be
00000050: 37a0 cd3e a46d e83d 61fd 823e c483 c8bd
00000060: c38f a03e 39ac c43e 3de1 a9be adc0 b53e
00000070: 5885 92be e2a2 98be 0a46 b9be 4e20 003e
00000080: d675 a6be a4e9 26be b5e4 5ebe 7c03 ed3d
00000090: ada8 d9be 7346 4bbe 8099 4f3b 6046 1f3d
000000a0: a540 48be 1edb 1e3e e544 92be f0c1 bbbe
000000b0: 8825 7cbd e7b9 6fbe 17bf 8b3e ae89 97be
000000c0: 48e6 14bd 7e2b 383e 4d27 c2be d39f ab3e
000000d0: e378 49be c050 f1bd 549e 87be bc3a 25be
000000e0: ecf8 2abe b549 c5be ce83 173e 00d1 b5ba
000000f0: 4fe0 d83e d193 953e d7dd c03e 2a76 023e
00000100: c2fd 683e 4f99 cf3e cb06 b63e 205b aabe
00000110: 30d9 c6bd 04d3 d5be f031 863c 289b 1cbe
00000120: 556b c03e 9435 8c3d 8029 9c3b 7a5e a0be
00000130: 10fa adbe e49a 8b3d eb51 5cbe 85a2 4bbe
00000140: 8182 9b3e c227 67be 995c 45be 9139 aa3e
00000150: e23c 2d3e 30f2 7bbe d248 063e 7a89 5f3e
00000160: 93ea c4be 9ca9 a53d 049c ca3d a027 8abc
00000170: 8f91 d43e 3e8a 92be 8e60 703e 478b 6bbe
00000180: 08cd bdbe 2918 973e 14b6 54be 70b9 a63c
00000190: 1230 693e c70b b9be 60c6 bdbe 4ef6 163e
000001a0: e14e c13e 58ad 3bbd b320 9c3e 12d0 1b3e
000001b0: 6402 fd3d ee59 8dbe 95ff d23e f618 4b3e
000001c0: 241f 893d a3cf 9c3e 2b7e bebe e417 bf3d
000001d0: 33b9 50be 581b 34bd 2e46 113e f661 443e
000001e0: a470 cb3d 5a96 abbe a7bf 8abe 40bf f73b
000001f0: 7896 99bd 7391 b9be f169 da3e 7017 5f3d
00000200: e087 9dbe a278 423e baa8 403e ef84 59be
00000210: c657 5e3e 1d88 89be aaa1 193e a998 d23e
00000220: 495a 923e 76e7 5a3e 306c b4bd 2c7c a63d
00000230: b2bb 1a3e bc99 d83d 24a9 b3bd e077 773d
00000240: c297 33be 6ba4 7abe 5a98 ccbe 89c1 b4be
00000250: 822a 8bbe 59ec d33e cc76 b13d 808e c8be
00000260: a6a7 62be fc23 cf3d c2b6 04be 4c05 fbbd
00000270: 5281 26be 2498 d8bd b803 4c3d a00f d23c
00000280: 9970 8e3e 85e0 8d3e 9375 b63e e0ae 61bc
00000290: 34fd 45be 00ac c13a 87d0 92be 1668 353e
000002a0: f0fc 55bd 2003 0ebe 46f6 bbbe 26af 553e
000002b0: 6e7f 773e 353e ca3e cc15 1dbe 429a 053e
000002c0: 30b6 853c c737 8dbe d898 8abe 9e0f 633e
000002d0: 6aa8 7ebe ab70 a13e 5ee8 1a3e 366d 173e
000002e0: 0102 923e 6e02 593e 9a3b 3f3e 9a0e 663e
000002f0: 982a 3cbe 2321 6bbe 0077 a2bd 162a 763e
00000300: 4927 9b3e ad43 a33e c0dd 0bbe 980b 61bd
00000310: 0c45 98be 6fb3 883e 5404 93be c274 36be
00000320: 0313 b73e 9c81 d73d 929f 39be c849 95be
00000330: 8475 98be 6beb b23e 15a3 cabe 6394 bf3e
00000340: b35a b13e 80cb db3c 102a 0ebd 436c ac3e
00000350: 0288 433e 499f d13e 1118 b33e 3062 91be
00000360: 21d1 883e 529f 5f3e 5869 9dbe 76f4 543e
00000370: 554f 66be ae16 84be c05a 043c e8f1 59bd
00000380: 6472 eebd e864 91be 328f 723e 8b0d dd3e
00000390: 4080 c4bd 9c60 95be 20e9 b6bc 0d9e c0be
000003a0: e908 b4be 44b5 13be f94b 8b3e 73d9 a9be
000003b0: 2485 8dbd 3b3f 66be 2b24 ccbe 68a1 c7bd
000003c0: 60a1 cebc e81b 95bd 3318 a23e 7e9c 313e
000003d0: e507 8a3e 4ead 2d3e 7815 3a3d 82a9 703e
000003e0: 5e6f 8dbe 02ee 613e 2a33 533e 202f 3cbe
000003f0: a07c 73bc 76b6 a7be 1600 c2be 00cc fab9

inner_conv.bias f4 [16]
0.0 0.0 0.0 0.0 0.0 0.0 0.0 0.0
0.0 0.0 0.0 0.0 0.0 0.0 0.0 0.0
00000000: 0000 0000 0000 0000 0000 0000 0000 0000
00000010: 0000 0000 0000 0000 0000 0000 0000 0000
00000020: 0000 0000 0000 0000 0000 0000 0000 0000
00000030: 0000 0000 0000 0000 0000 0000 0000 0000
